…
WARNING:tensorflow:From /home/test_user05/.local/lib/python3.7/site-packages/tensorflow_core/python/ops/nn_impl.py:183: where (from tensorflow.python.ops.array_ops) is deprecated and will be removed in a future version.
Instructions for updating:
Use tf.where in 2.0, which has the same broadcast rule as np.where
10
Model: "encoder"
_________________________________________________________________
Layer (type)                 Output Shape              Param #   
=================================================================
input_1 (InputLayer)         [(None, 64, 64, 3)]       0         
_________________________________________________________________
conv2d (Conv2D)              (None, 31, 31, 64)        1792      
_________________________________________________________________
batch_normalization (BatchNo (None, 31, 31, 64)        256       
_________________________________________________________________
leaky_re_lu (LeakyReLU)      (None, 31, 31, 64)        0         
_________________________________________________________________
conv2d_1 (Conv2D)            (None, 15, 15, 64)        36928     
_________________________________________________________________
batch_normalization_1 (Batch (None, 15, 15, 64)        256       
_________________________________________________________________
leaky_re_lu_1 (LeakyReLU)    (None, 15, 15, 64)        0         
_________________________________________________________________
conv2d_2 (Conv2D)            (None, 7, 7, 64)          36928     
_________________________________________________________________
batch_normalization_2 (Batch (None, 7, 7, 64)          256       
_________________________________________________________________
leaky_re_lu_2 (LeakyReLU)    (None, 7, 7, 64)          0         
_________________________________________________________________
conv2d_3 (Conv2D)            (None, 3, 3, 64)          36928     
_________________________________________________________________
batch_normalization_3 (Batch (None, 3, 3, 64)          256       
_________________________________________________________________
leaky_re_lu_3 (LeakyReLU)    (None, 3, 3, 64)          0         
_________________________________________________________________
flatten (Flatten)            (None, 576)               0         
_________________________________________________________________
dense (Dense)                (None, 256)               147712    
_________________________________________________________________
batch_normalization_4 (Batch (None, 256)               1024      
_________________________________________________________________
leaky_re_lu_4 (LeakyReLU)    (None, 256)               0         
_________________________________________________________________
encoder_embedding (Dense)    (None, 128)               32896     
=================================================================
Total params: 295,232
Trainable params: 294,208
Non-trainable params: 1,024
_________________________________________________________________
Model: "model"
__________________________________________________________________________________________________
Layer (type)                    Output Shape         Param #     Connected to                     
==================================================================================================
input_2 (InputLayer)            [(None, 4, 64, 64, 3 0                                            
__________________________________________________________________________________________________
time_distributed (TimeDistribut (None, 4, 128)       295232      input_2[0][0]                    
__________________________________________________________________________________________________
ar_context (GRU)                (None, 256)          295680      time_distributed[0][0]           
__________________________________________________________________________________________________
z_t_0 (Dense)                   (None, 128)          32896       ar_context[0][0]                 
__________________________________________________________________________________________________
z_t_1 (Dense)                   (None, 128)          32896       ar_context[0][0]                 
__________________________________________________________________________________________________
z_t_2 (Dense)                   (None, 128)          32896       ar_context[0][0]                 
__________________________________________________________________________________________________
z_t_3 (Dense)                   (None, 128)          32896       ar_context[0][0]                 
__________________________________________________________________________________________________
input_3 (InputLayer)            [(None, 4, 64, 64, 3 0                                            
__________________________________________________________________________________________________
lambda (Lambda)                 (None, 4, 128)       0           z_t_0[0][0]                      
                                                                 z_t_1[0][0]                      
                                                                 z_t_2[0][0]                      
                                                                 z_t_3[0][0]                      
__________________________________________________________________________________________________
time_distributed_1 (TimeDistrib (None, 4, 128)       295232      input_3[0][0]                    
__________________________________________________________________________________________________
cpc_layer (CPCLayer)            (None, 1)            0           lambda[0][0]                     
                                                                 time_distributed_1[0][0]         
==================================================================================================
Total params: 722,496
Trainable params: 721,472
Non-trainable params: 1,024
__________________________________________________________________________________________________
…
