…
2021-08-13 19:43:32.838243: I tensorflow/core/common_runtime/gpu/gpu_device.cc:1003] 0:   N 
2021-08-13 19:43:32.838348: I tensorflow/core/common_runtime/gpu/gpu_device.cc:1115] Created TensorFlow device (/job:localhost/replica:0/task:0/device:GPU:0 with 30583 MB memory) -> physical GPU (device: 0, name: Tesla V100-PCIE-32GB, pci bus id: 0000:21:01.0, compute capability: 7.0)
Model: "encoder"
_________________________________________________________________
Layer (type)                 Output Shape              Param #   
=================================================================
input_1 (InputLayer)         (None, 64, 64, 3)         0         
_________________________________________________________________
conv2d_1 (Conv2D)            (None, 31, 31, 64)        1792      
_________________________________________________________________
batch_normalization_1 (Batch (None, 31, 31, 64)        256       
_________________________________________________________________
leaky_re_lu_1 (LeakyReLU)    (None, 31, 31, 64)        0         
_________________________________________________________________
conv2d_2 (Conv2D)            (None, 15, 15, 64)        36928     
_________________________________________________________________
batch_normalization_2 (Batch (None, 15, 15, 64)        256       
_________________________________________________________________
leaky_re_lu_2 (LeakyReLU)    (None, 15, 15, 64)        0         
_________________________________________________________________
conv2d_3 (Conv2D)            (None, 7, 7, 64)          36928     
_________________________________________________________________
batch_normalization_3 (Batch (None, 7, 7, 64)          256       
_________________________________________________________________
leaky_re_lu_3 (LeakyReLU)    (None, 7, 7, 64)          0         
_________________________________________________________________
conv2d_4 (Conv2D)            (None, 3, 3, 64)          36928     
_________________________________________________________________
batch_normalization_4 (Batch (None, 3, 3, 64)          256       
_________________________________________________________________
leaky_re_lu_4 (LeakyReLU)    (None, 3, 3, 64)          0         
_________________________________________________________________
flatten_1 (Flatten)          (None, 576)               0         
_________________________________________________________________
dense_1 (Dense)              (None, 256)               147712    
_________________________________________________________________
batch_normalization_5 (Batch (None, 256)               1024      
_________________________________________________________________
leaky_re_lu_5 (LeakyReLU)    (None, 256)               0         
_________________________________________________________________
encoder_embedding (Dense)    (None, 128)               32896     
=================================================================
Total params: 295,232
Trainable params: 294,208
Non-trainable params: 1,024
_________________________________________________________________
Model: "model_1"
__________________________________________________________________________________________________
Layer (type)                    Output Shape         Param #     Connected to                     
==================================================================================================
input_2 (InputLayer)            (None, 4, 64, 64, 3) 0                                            
__________________________________________________________________________________________________
time_distributed_1 (TimeDistrib (None, 4, 128)       295232      input_2[0][0]                    
__________________________________________________________________________________________________
ar_context (GRU)                (None, 256)          295680      time_distributed_1[0][0]         
__________________________________________________________________________________________________
z_t_0 (Dense)                   (None, 128)          32896       ar_context[0][0]                 
__________________________________________________________________________________________________
z_t_1 (Dense)                   (None, 128)          32896       ar_context[0][0]                 
__________________________________________________________________________________________________
z_t_2 (Dense)                   (None, 128)          32896       ar_context[0][0]                 
__________________________________________________________________________________________________
z_t_3 (Dense)                   (None, 128)          32896       ar_context[0][0]                 
__________________________________________________________________________________________________
input_3 (InputLayer)            (None, 4, 64, 64, 3) 0                                            
__________________________________________________________________________________________________
lambda_1 (Lambda)               (None, 4, 128)       0           z_t_0[0][0]                      
                                                                 z_t_1[0][0]                      
                                                                 z_t_2[0][0]                      
                                                                 z_t_3[0][0]                      
__________________________________________________________________________________________________
time_distributed_2 (TimeDistrib (None, 4, 128)       295232      input_3[0][0]                    
__________________________________________________________________________________________________
cpc_layer_1 (CPCLayer)          (None, 1)            0           lambda_1[0][0]                   
                                                                 time_distributed_2[0][0]         
==================================================================================================
Total params: 722,496
Trainable params: 721,472
Non-trainable params: 1,024
__________________________________________________________________________________________________
…
